Model: "sequential"
_________________________________________________________________
 Layer (type)                Output Shape              Param #   
=================================================================
 lstm (LSTM)                 (None, 512)               1112064   
                                                                 
 flatten (Flatten)           (None, 512)               0         
                                                                 
 dense (Dense)               (None, 128)               65664     
                                                                 
 dense_1 (Dense)             (None, 1)                 129       
                                                                 
=================================================================
Total params: 1,177,857
Trainable params: 1,177,857
Non-trainable params: 0
_________________________________________________________________
Model: "sequential_1"
_________________________________________________________________
 Layer (type)                Output Shape              Param #   
=================================================================
 dense_2 (Dense)             (None, 15)                1515      
                                                                 
 reshape (Reshape)           (None, 15, 1)             0         
                                                                 
 up_sampling1d (UpSampling1D  (None, 30, 1)            0         
 )                                                               
                                                                 
 lstm_1 (LSTM)               (None, 512)               1052672   
                                                                 
 batch_normalization (BatchN  (None, 512)              2048      
 ormalization)                                                   
                                                                 
 activation (Activation)     (None, 512)               0         
                                                                 
 dense_3 (Dense)             (None, 128)               65664     
                                                                 
 dense_4 (Dense)             (None, 30)                3870      
                                                                 
=================================================================
Total params: 1,125,769
Trainable params: 1,124,745
Non-trainable params: 1,024
_________________________________________________________________
0 [D loss: 0.694040, acc.: 37.50%] [G loss: 0.692279]
1 [D loss: 0.691624, acc.: 50.00%] [G loss: 0.692785]
2 [D loss: 0.690764, acc.: 50.00%] [G loss: 0.692958]
…
