Model: "sequential"
_________________________________________________________________
 Layer (type)                Output Shape              Param #   
=================================================================
 reshape (Reshape)           (None, 28, 28, 1)         0         
                                                                 
 conv2d (Conv2D)             (None, 14, 14, 32)        320       
                                                                 
 leaky_re_lu (LeakyReLU)     (None, 14, 14, 32)        0         
                                                                 
 dropout (Dropout)           (None, 14, 14, 32)        0         
                                                                 
 conv2d_1 (Conv2D)           (None, 7, 7, 64)          18496     
                                                                 
 leaky_re_lu_1 (LeakyReLU)   (None, 7, 7, 64)          0         
                                                                 
 zero_padding2d (ZeroPadding  (None, 8, 8, 64)         0         
 2D)                                                             
                                                                 
 dropout_1 (Dropout)         (None, 8, 8, 64)          0         
                                                                 
 flatten (Flatten)           (None, 4096)              0         
                                                                 
 dense (Dense)               (None, 2048)              8390656   
                                                                 
 leaky_re_lu_2 (LeakyReLU)   (None, 2048)              0         
                                                                 
 dropout_2 (Dropout)         (None, 2048)              0         
                                                                 
 dense_1 (Dense)             (None, 1)                 2049      
                                                                 
=================================================================
Total params: 8,411,521
Trainable params: 8,411,521
Non-trainable params: 0
_________________________________________________________________
Model: "sequential_1"
_________________________________________________________________
 Layer (type)                Output Shape              Param #   
=================================================================
 dense_2 (Dense)             (None, 256)               25856     
                                                                 
 leaky_re_lu_3 (LeakyReLU)   (None, 256)               0         
                                                                 
 batch_normalization (BatchN  (None, 256)              1024      
 ormalization)                                                   
                                                                 
 dense_3 (Dense)             (None, 1024)              263168    
                                                                 
 leaky_re_lu_4 (LeakyReLU)   (None, 1024)              0         
                                                                 
 batch_normalization_1 (Batc  (None, 1024)             4096      
 hNormalization)                                                 
                                                                 
 dense_4 (Dense)             (None, 6272)              6428800   
                                                                 
 leaky_re_lu_5 (LeakyReLU)   (None, 6272)              0         
                                                                 
 batch_normalization_2 (Batc  (None, 6272)             25088     
 hNormalization)                                                 
                                                                 
 reshape_1 (Reshape)         (None, 14, 14, 32)        0         
                                                                 
 conv2d_transpose (Conv2DTra  (None, 28, 28, 1)        289       
 nspose)                                                         
                                                                 
 reshape_2 (Reshape)         (None, 28, 28, 1)         0         
                                                                 
=================================================================
Total params: 6,748,321
Trainable params: 6,733,217
Non-trainable params: 15,104
_________________________________________________________________
0 [D loss: 0.694944, acc.: 33.98%] [G loss: 0.681363]
1 [D loss: 0.684185, acc.: 50.00%] [G loss: 0.671560]
2 [D loss: 0.675243, acc.: 50.00%] [G loss: 0.658173]
…
